LSTM/mnist_rnn.pt (torch, 101163 bytes, 6 tensors)

lstm.weight_ih_l0 f4 [256, 28]
00000000: 4ae8 833d 221e f2bd 6051 12bc e6bf a23d
00000010: 73eb d3bd 1282 083e e296 9eba e5f1 9f3d
00000020: 4b64 df3d b53a 093e 42fa 8e3b 0241 98bd
00000030: 5c2e f93d 5583 063d b7ce b83d a315 243e
00000040: 6947 d53d 1c2b fd3c 4872 203d c8f5 c6bd
00000050: 9564 eebd f35f c1bc a765 e33d a470 a53d
00000060: 56ed 6bbc 34bf a7bd 5f24 003d ccea 233e
00000070: c640 fabd 19af b23d 896b 85bb 11f1 213e
00000080: b219 0b3e 5be0 1bbe 8379 fabd 5436 a3bd
00000090: 6b42 2a3d 3ca4 45bd 66f1 363e 54d1 983d
000000a0: dd5a 6d3e 14f1 b83d 48b9 363e 3094 cb3d
000000b0: 7cba 0d3e a4f0 923e 003c 1f3d c024 153e
000000c0: 2607 973d fd73 f53d 97e5 6bbd 8d3b 763c
000000d0: 7d69 023e 82e0 893d 7aac 103e b0db 1e3e
000000e0: 20ca bfbb 44a7 a4bd ae7d 0e3d 9b95 05bd
000000f0: 8e74 bdbd a505 303d ab9f 263e 5ba0 133e
00000100: 5586 75bd 17de 03bd 6266 30bd dc5e b6bc
00000110: 498f 90bd 31ac 17be d5ba 35bc 4cd1 0fbd
00000120: 565e b83d e8a0 c5bc b9ab a5bd 0304 84bd
00000130: 4d38 2a3e 3833 583e cd8e 9bbc 11e2 223d
00000140: aa3a 44be 4a18 f23b 3c81 593c f441 033d
00000150: de5a 963d ed1d 97bd 77fe dfbd d4dc 123e
00000160: c212 493d b28b 58bd f256 f0bc df47 40be
00000170: 25f7 ebbc c560 d0bc 43e9 14bd a417 a83d
00000180: 2684 e23d 7541 80bc ede9 23be 9d77 22be
00000190: fede 093e f889 383d 8115 3b3e 4995 3a3e
000001a0: b65f 2d3e 4274 c23d 63fe 913e c5fe cd3d
000001b0: 37da 2a3e 4295 aa3c 38b9 0c3c b4f7 c03d
000001c0: 32be f23d c003 3dbe df96 3cbd f4b1 8c3d
000001d0: 9626 de3c 68f4 cd3d f531 063d 0523 4abc
000001e0: 56e1 b2bd c393 443d 2b84 743e 730d 023d
000001f0: 56c5 123e 6369 c53d 1356 bdbd e8df 8fbd
00000200: 4a88 eb3d 9b81 3a3e 4a6b aabc 76b5 253d
00000210: 5ec8 b63d c19e 053e 3885 f6bc aa50 94bd
00000220: 90f0 c2bc e296 2f3c d87d 1dbe 4796 9abe
00000230: e49b 6abd 422d c5bd 97b9 163d 960a e53c
00000240: dbd7 bc3d a985 9c3c 67f9 b83d 21c9 743d
00000250: 38fa 9c3d 9844 9dbd a70c 27be 484b 0d3e
00000260: 2aac cf3d c001 893d 2918 e9bc be08 573d
00000270: 8cf1 103d 8f84 f53d 6ce0 5b3e 6352 c1bd
00000280: e24e 23be aaa2 86bb d399 783c 186a 8d3d
00000290: 3e78 02bc 24cc 1e3d 07ea 183c f809 bebd
000002a0: d802 ccbd 3c77 5cbd 0083 74bc af9e f13d
000002b0: 08df 363e 5af6 2f3e e78a 683e b699 8a3e
000002c0: a6c2 163e fc1a 7cbd 3f18 a9be 983e 32bd
000002d0: 72c6 14be 0a35 a7bd 7d6b 26be 7d63 e7bd
000002e0: 36fc 1abe a551 973d c098 efbd af6f b0bd
000002f0: 8b7f f33c 3c04 023d 4190 173e f253 fa3c
00000300: afbd 42bd 4902 eebd 2289 593d 6cff 9fbc
00000310: 3c70 703d 109d 3b3b 580b a6bc 1124 38be
00000320: 88f3 03bc 5d5d 2abe 23fe d33d 547b 893d
00000330: a072 883e ee18 723e eb1d 2b3e 8ce3 c83d
00000340: 505f 9c3d 56ec 9b3d 3e01 5dbc 1c4a 8c3b
00000350: a554 2cbe 2334 083a d63b 5cbd 7a8b 763c
00000360: 06a7 9d3d d6d1 87bd af66 c2bc 415d 633d
00000370: 2737 89be ce1d ad3d 708b debc 94e2 01be
00000380: 384e 7a3d a3da a6bd e97d a1ba ae76 f13d
00000390: 423d 813e a017 a33d 9ce2 93bd 8adc e5bd
000003a0: 1af7 e7bb a6ee 54be 5613 25be 48ef babc
000003b0: f3fc 18be 2d53 0c3e 3927 773e 67dc 623d
000003c0: 6bab 51bd 6e38 513c 32f1 163d 8986 ea3d
000003d0: e71e 873d d0b1 c03d b39f 0abe 7504 06be
000003e0: eeea fcbd e875 373e 8a69 acbd f0b6 0d3c
000003f0: 00b5 b73b 3e57 003d 1f83 043d eacd 423b
0.0644079 -0.11822154 -0.008930534 0.07946758 -0.10347643 0.13330868 -0.001209941 0.078098096
0.10907801 0.13401301 0.004363329 -0.07434274 0.121670455 0.03284009 0.09023803 0.16023879
0.10414011 0.030904345 0.039171487 -0.09714848 -0.11640278 -0.023605322 0.11103373 0.08078125
-0.014399847 -0.08190766 0.031284686 0.16007537 -0.12219386 0.087248035 -0.004071657 0.15814616
0.1358402 -0.15222304 -0.12230208 -0.07969347 0.041567247 -0.04825233 0.17865524 0.07461801
0.23179193 0.09030357 0.17844117 0.09940374 0.1384067 0.2869922 0.03887558 0.145648
0.0737441 0.11985014 -0.057592 0.015028846 0.12735553 0.067322746 0.14128295 0.15513492
-0.0058529526 -0.08039716 0.034787826 -0.032613378 -0.09250747 0.042974133 0.16271846 0.1441664
-0.059942562 -0.032194223 -0.04306639 -0.02226203 -0.070585795 -0.1481178 -0.0110919075 -0.03511171
0.09002368 -0.024124578 -0.08089394 -0.06446078 0.1662304 0.21113288 -0.018988991 0.039766375
-0.19163004 0.0073881494 0.013275441 0.03204532 0.0734155 -0.07378755 -0.10937207 0.14342052
0.049090154 -0.0528676 -0.029338334 -0.18777417 -0.028804371 -0.025436768 -0.03635527 0.08207634
0.110603616 -0.015656212 -0.16007204 -0.15865941 0.13463971 0.045053452 0.18269922 0.1822101
0.16931042 0.09494831 0.28514394 0.10058359 0.16684805 0.020823125 0.0085890815 0.094222456
0.11852683 -0.18458462 -0.04604232 0.06869879 0.027118009 0.100563824 0.032762486 -0.012337451
-0.08734386 0.04799248 0.23878543 0.031751107 0.1433309 0.096392415 -0.09244933 -0.070251286
0.115006045 0.18213503 -0.020803113 0.040456258 0.08924936 0.13048841 -0.03009282 -0.07241948
-0.02379635 0.010717126 -0.15380037 -0.30192778 -0.057277575 -0.09627773 0.036798086 0.02795915
0.09220859 0.019106703 0.09031945 0.059762124 0.07664913 -0.07679099 -0.1631342 0.13798249
0.101402596 0.06689787 -0.028453903 0.05249857 0.035386607 0.11988174 0.21472329 -0.09439542
-0.1594806 -0.0041087465 0.015173393 0.069050014 -0.007963238 0.038768902 0.00933314 -0.09279245
-0.0996148 -0.05382465 -0.014923811 0.117978446 0.17858517 0.1718382 0.22709237 0.27070397
0.1472269 -0.06154917 -0.3302631 -0.043516725 -0.14528826 -0.08164413 -0.16251941 -0.11298273
-0.15135273 0.07388619 -0.116990566 -0.08615052 0.029723903 0.03174232 0.14801122 0.030557606
-0.047544178 -0.116215296 0.053109296 -0.019530974 0.058700785 0.0028627552 -0.020269081 -0.17982508
-0.008053668 -0.16637178 0.10351207 0.06712976 0.26649952 0.23642322 0.16710632 0.09809026
0.07635367 0.07613437 -0.013489066 0.0042812955 -0.16829164 0.0005195757 -0.053768 0.015047902
0.07697873 -0.0663182 -0.023730604 0.055508856 -0.2679989 0.084529504 -0.027166098 -0.12684089
0.06110975 -0.081471704 -0.0012320849 0.117902145 0.25242049 0.079634905 -0.07220957 -0.11223705
-0.0070790173 -0.20794162 -0.16120657 -0.022819176 -0.14940242 0.13703604 0.24136056 0.055385973
-0.051188868 0.012769802 0.036851116 0.11451442 0.06597691 0.09408915 -0.13537483 -0.13087638
-0.12349497 0.17916071 -0.084185675 0.008649573 0.0056062937 0.0313332 0.03235161 0.0029724785

lstm.weight_hh_l0 f4 [256, 64]
00000000: 2672 103d c409 1c3e a5cb a1bd faf3 083d
00000010: a464 d63d 684c 733d 0fcf 793d 9a45 fb3d
00000020: 92a7 903e 429d 81bd 9ba8 d1bd 5304 ab3d
00000030: 92c3 b3bc 04d0 5cbe 8a86 703d c6a7 933d
00000040: 9298 4dbe ae79 2e3e 4f89 b73d 37ab 523d
00000050: 2b51 2abd c3a8 463e 0564 b83c 5c7f aebd
00000060: d161 dd3d 9900 4d3e ff3e fcbd a17e 8b3e
00000070: 9ef4 cebc 3b69 febc df69 5abe 9161 33be
00000080: 0bbc c2bd 91ab f53d 9a8e c7bd a1b1 8f3e
00000090: 8a53 d9bc f755 cbbd 4c61 5ebe bf41 733e
000000a0: 83ec 9f3d 644b 7d3d 02ad 173e 5189 39be
000000b0: 9099 333e e373 3dbe e69c cf3d 7ab7 4dbe
000000c0: a984 a33e 5e6d 893d 79e1 33bd 4c7a dbbd
000000d0: 04e6 25bd 7eec f83c 8f36 9c3c 8780 c43b
000000e0: cc04 29be 72c1 29be b30d 1a3d 784d 253e
000000f0: 3ed2 763d 360d e73d 4d1b 81bd 41b1 97be
00000100: ab15 f33b f51e 0c3e 28cc b63c c664 53bd
00000110: cf88 ad3d 49ff a23d 242d 9ebd 4da9 943e
00000120: 0b93 a03d 847b 09bd 1f13 a83d 5748 1e3e
00000130: e142 14bd 0929 29be d1f9 ef3d 2b4b d5bd
00000140: 96b8 85be d8df ad3d 0320 703e 00d6 dc3c
00000150: 1dad 343e 6f34 e03b 1262 6a3d 9a6a 2abd
00000160: 85ac 92bd 4b75 0a3e b2b7 0fbe 77bc 123e
00000170: 908c 833d d04b 19be b670 93bc 839c c5bb
00000180: 9d6d e8bd 239c 7bbd 7104 323e 354b 913e
00000190: 061a 05bd abd7 153e 0843 5bbd b021 343e
000001a0: e95b 073e d000 e13d 7d20 16be 2da1 0fbd
000001b0: b045 7e3c 1608 34be b467 adbb 1f23 19be
000001c0: aaf5 603d 3464 cbba 9369 373e f01b af3d
000001d0: 7836 29bc 9b29 0ebe 0dd6 023e 2a2f 5fbd
000001e0: b3f5 78bd 697b 79bd cfa2 56bd 225b 3b3e
000001f0: 3736 32be 96fd 503d c219 8cbd 2f61 bfbc
00000200: a9f0 723c 1c29 f33c c49d fe3c e777 b7bb
00000210: df3c 413e 64de eabc 589f 933d 7c0a 933e
00000220: 201f a43e 974c 09be 3136 1fbe 35ac 8f3d
00000230: 4af8 67be 2b9f 55be 03b2 0cbe e0aa 973c
00000240: 7879 153d 7b18 913e 1a31 0e3d 2864 263e
00000250: 8608 983e 7dc9 5f3e bf85 96bd 71be 7f3d
00000260: 944d d3bd 75cf 1d3e c318 c7bd 16bb 923e
00000270: a195 083d f165 8fbe be86 3dbd d2f7 4dbe
00000280: b666 62be 7186 dbbc b2c5 8a3c c691 663e
00000290: 584d 1e3e ce6d 8cbe 58ad 743d 6a59 f83d
000002a0: 1d51 2e3e b0f3 063e 9d2e 5fbe 4eb4 4ebd
000002b0: 617c d63d 53fa 75be 13af 1cbc 49ef 06be
000002c0: e947 d6bc dedf 23be 0193 243e 5868 3c3d
000002d0: 3912 29bd 69ad 77bd 3e60 0b3d 582a 293b
000002e0: 8b1f bfbd d042 a9be e508 8a3d f3fa 413e
000002f0: bc9e b63d 789b 373e 4346 a73d dcdb 1fbe
00000300: fada 163c 946c 203e e6a4 1bbe 8ff6 6b3d
00000310: 0a06 2f3e 6c89 4b3e 5cf7 1bbd ca80 153e
00000320: f48b 363e 9877 fabd 1e23 df3c e053 3e3e
00000330: 1e0c e9bd adf4 27be a573 be3d 5615 463c
00000340: 95d4 c2bd a834 113e c9aa a63e 2beb 6d3d
00000350: d25e 253d 320f a43e 9ad5 ddbd 959b 25be
00000360: bb14 ba3d 25df 51bd 3958 53bc 5b49 a03e
00000370: 7c0d 803d 225c ecbc 485d 33bd 77f1 2f3c
00000380: c52a ddbd a664 d9bd a063 983d 16eb 413d
00000390: 5915 0e3e 3be4 4cbe ceda b2bd a485 8c3e
000003a0: 5632 4b3e 4151 2c3e b69e b53c 66e2 2f3d
000003b0: 1eed 243e 5208 8dbd 18f5 42bc 153b 5bbd
000003c0: 65a9 c83d 8d43 6c3d 52c2 733e 288e c83d
000003d0: 3d94 a6bd 1af7 7c3d e78a 7e3c 895d 913d
000003e0: 49c3 a0be 7ff2 48bd 99f0 2c3e e520 673e
000003f0: a5a3 b63d acd2 773e 115b ad3b 5a9b 613d
0.03526511 0.152381 -0.0790017 0.0334358 0.104684144 0.05939904 0.060988482 0.12269135
0.28252846 -0.06328823 -0.10237237 0.08350434 -0.021943841 -0.21563727 0.058722056 0.072097346
-0.20077732 0.17038605 0.089617364 0.051432814 -0.041581314 0.19400315 0.02250863 -0.085203856
0.108096726 0.20019759 -0.12316703 0.27245048 -0.025263127 -0.031056037 -0.21329449 -0.17517687
-0.095085226 0.11995614 -0.09743996 0.28065208 -0.026529092 -0.09928506 -0.21716803 0.23755549
0.07808783 0.061839476 0.14812091 -0.18118788 0.17539048 -0.18501239 0.10137348 -0.20089522
0.3193715 0.06710313 -0.0439162 -0.10716686 -0.040502563 0.030386206 0.019068984 0.005996767
-0.16505736 -0.165777 0.03761072 0.16142833 0.060259096 0.11281817 -0.06304035 -0.29627421
0.0074183545 0.13683684 0.022314146 -0.051609777 0.0847336 0.07958848 -0.07723454 0.29035416
0.07840546 -0.03356506 0.08206772 0.15457283 -0.036196593 -0.1651956 0.117175706 -0.10414728
-0.2611739 0.084899604 0.23449712 0.026957512 0.17644162 0.006842188 0.057222433 -0.04160557
-0.07161812 0.13521306 -0.14034918 0.14329706 0.064232945 -0.14970326 -0.01799808 -0.0060306205
-0.11349032 -0.0614282 0.17384507 0.2837769 -0.03249552 0.14633052 -0.053530723 0.17590976
0.13218655 0.10986483 -0.14660831 -0.03506582 0.0155195445 -0.1758121 -0.0052919034 -0.14954804
0.054921784 -0.0015517534 0.17911367 0.085502505 -0.010327928 -0.13883059 0.12776966 -0.05448834
-0.060781192 -0.06090871 -0.05240136 0.18296483 -0.17403494 0.05102309 -0.068408504 -0.02336177
0.014827886 0.029682688 0.031081088 -0.0055990103 0.18870877 -0.028670497 0.07208127 0.28718936
0.32054996 -0.13408123 -0.15548016 0.07015268 -0.22653309 -0.20861499 -0.13739781 0.018514097
0.036492795 0.2833899 0.034714796 0.16249144 0.29694003 0.21854205 -0.07349729 0.06243748
-0.10317531 0.1541117 -0.0972152 0.2865836 0.033345822 -0.28007463 -0.04627108 -0.20114067
-0.22109494 -0.026797505 0.016939972 0.22516546 0.15459192 -0.27427524 0.059735626 0.121264294
0.1702313 0.13178897 -0.21795125 -0.05046492 0.10472942 -0.24021272 -0.009563225 -0.13177218
-0.026157336 -0.16003367 0.16071703 0.045997947 -0.041277144 -0.06046811 0.03402733 0.0025812592
-0.09332188 -0.33058786 0.06739978 0.18943386 0.08916995 0.179304 0.08167698 -0.15611213
0.0092074815 0.1566642 -0.15199623 0.057608183 0.17092147 0.19876641 -0.038077697 0.1459991
0.17826825 -0.12229842 0.027238425 0.18586683 -0.11379264 -0.1640193 0.09299401 0.012090048
-0.09513203 0.14180243 0.32552174 0.0580856 0.04037363 0.32042843 -0.10831757 -0.16172631
0.09085985 -0.051238198 -0.012899452 0.31305966 0.06252572 -0.028852526 -0.04379013 0.010738722
-0.10799173 -0.106149 0.07440877 0.047343336 0.13875331 -0.20008938 -0.0873314 0.2744571
0.1984342 0.16827871 0.022170406 0.04294052 0.16106078 -0.068863526 -0.011899255 -0.053523142
0.097979344 0.05768161 0.23804596 0.09792739 -0.08133743 0.061759092 0.015536047 0.070979185
-0.3139899 -0.049059387 0.16888656 0.22571142 0.089179315 0.24201459 0.005290397 0.055079795

lstm.bias_ih_l0 f4 [256]
00000000: 21e1 3a3e dca2 583e e830 593e d11c ac3d
00000010: 35bd 023c ebb8 c33d 4f66 29bd 9bcb 973b
00000020: e17f 083e 5b5b 1c3d 9a84 b33d 670a 103e
00000030: 633f 433d e191 333d bf21 1c3e 5b56 8e3e
00000040: b2e3 bebc b912 0a3e d892 fd3d 976d 1f3e
00000050: 5431 683d 4325 bcbc 3ac0 cc3d bdeb 503e
00000060: ecab 163e 4a53 253e fa50 a03d a902 c83c
00000070: 6a80 f03d b164 3c3e a08c 913e 56fe c93c
00000080: dac7 123d 5f24 8e3d 080b 473d 290c 933d
00000090: f363 803c 7134 503e d5a9 11bd 91e1 843e
000000a0: c241 ad3d 2a05 ae3c b61d 793e 665c b13c
000000b0: 06e3 c43d a360 9dbc 797a 893e 53cc 3f3e
000000c0: 4411 a63d 594c 6e3e 5bdc 0abd 4cc1 0cbd
000000d0: 6156 573e acb4 c63d 1be7 373e 3239 51bd
000000e0: d6fc 8e3d 9fc3 173d 98f9 553e 97b9 febb
000000f0: b0cf a33d 06e8 8f3d 31ba 323e ef76 eb3d
00000100: 46f9 063d cc38 c03d 2e6c 0c3e d765 2b3e
00000110: f204 a83d 7cdc 5f3d ed1c 03bd 36f1 5f3e
00000120: 516d f23d bf0f 213e b23f a0bb e2f6 153d
00000130: 407e 313e 4fb2 923b 550f 683e 74d3 fe3d
00000140: 60db 263e 3eb1 753d b539 f83d 5bdd e2bb
00000150: 65b7 6cba a568 aa3d eabc cd3d 8d8e 4e3e
00000160: 20a6 913c 442e 8dbc b440 fc3d f162 1a3e
00000170: f8ab 4e3e 33ae 153e e45e 163e 19ac fbbc
00000180: 4e4e 2f3e a862 1d3e bd2c 303d 417d 4e3e
00000190: 5587 4f3b 06d1 c53c 3281 753e b27e bbbc
000001a0: a279 913d dcb0 543d f431 073e 27c3 ad3d
000001b0: e729 8e3d 974a b13d f738 763d 44ce 1a3e
000001c0: f1b0 5a3e f116 3c3d b2eb 4f3e 93a6 9c3d
000001d0: 3a2c b13c 3b15 573d a304 743d e370 203e
000001e0: fb81 123e d8c6 1e3e 4d1f 7f3d 0c8f 2f3e
000001f0: 7424 0c3e a235 383d e4b2 36bc 28f1 de3d
00000200: 0022 4d3c beee 6ebc 26f3 6ebb d870 38bd
00000210: 9e37 c53d fe9a 83bd 8f5f b63d 59a6 ba3d
00000220: 3a8b 103c b6d6 05be 331b 6e3d 8a02 573b
00000230: 53c5 17be 1dd4 033c c6b1 14be cf02 c9bd
00000240: 8a26 b3bd 2356 953d 9f34 9c3d c083 333d
00000250: 3b9b 1c3e 1df4 393d adae 72bd b64e a83c
00000260: bb41 a7bd d31d 133e c375 5c3d f242 adbc
00000270: 094f e13d 290f 5f3c d67a 913d d166 54bd
00000280: 453f f9bd a5d5 58bd e490 7f3d f041 ad3c
00000290: e59f 603d 71ad afbd 4cf8 013e cb32 223d
000002a0: c73b 3c3d 831c cb3d a42d d33c f101 85bd
000002b0: 6299 a9bd a07c d93c 75c4 0c3e e01c e83d
000002c0: 2ec8 043d e9f6 353c cedc cb3d 28e9 fc3c
000002d0: 156d 443d 7104 a9bd 4fdc 753d db7b b73d
000002e0: 7fee f53c d442 45bd 3073 073d cbe4 893d
000002f0: 0026 98bc 7a34 913d 8434 5c3d 54dd 363d
00000300: 8e3c 653e 4729 553e f8b3 2b3e 1989 a63e
00000310: 8231 943d df26 5b3d 3c8f 1f3d 040b a63e
00000320: d49e 6c3e 58ae 363e 85ac 643e ebcd 443e
00000330: 9c5f e23d 0f92 533e 3306 e03d d166 943d
00000340: 00e1 993e f3e3 753d fa2b b23e 13eb 103e
00000350: b2c8 9f3e 45e5 6f3e c70c 8b3e c359 4e3e
00000360: 44ae 703e 2b99 383e fcfa 333e 7110 793e
00000370: ad0e a03e f10c 2b3e f3b0 3a3e f867 cd3d
00000380: 4240 783e b48c 8f3e d092 703e b8ae 523e
00000390: 0067 3e3e b760 b73d d298 503e a93d 8e3e
000003a0: 3391 613e de2e 5b3d e19e a53e 515f a73e
000003b0: 514b 953e 4947 9f3d 7397 923e e30c 883e
000003c0: 6b7a 913d 6b0d 403e 395b 5a3e a8d6 1a3e
000003d0: 5d9c 1b3e f54d 913e 11f0 853e 4a1d 4e3d
000003e0: de5b d53d 69ab 813d a7e4 e23d 2f42 7e3d
000003f0: e7ad 583e 55e7 373e b9b9 003e 3642 273e
0.18249942 0.21155876 0.21210063 0.08403934 0.007979681 0.09556755 -0.041357335 0.004632426
0.13330032 0.03817306 0.08765526 0.14066468 0.047667872 0.043840293 0.15247248 0.2780026
-0.023301933 0.13483705 0.12381524 0.15569149 0.056687668 -0.022966987 0.09997602 0.20402427
0.1471402 0.16145054 0.07827945 0.024415331 0.11743243 0.18397786 0.284276 0.02465741
0.035835125 0.06940531 0.048594505 0.07180054 0.01567266 0.20332505 -0.035562355 0.25953344
0.08459808 0.021242697 0.2432774 0.021650504 0.09613614 -0.019211119 0.26851252 0.18730287
0.08108762 0.23271312 -0.033901554 -0.03436403 0.21029045 0.09702429 0.17959253 -0.051079936
0.069818184 0.037051793 0.20895994 -0.007773589 0.079985976 0.07026677 0.17453839 0.11497294
0.03295257 0.09385833 0.13713142 0.16738068 0.08204068 0.05465363 -0.032010008 0.21869358
0.11837257 0.15728663 -0.0048904056 0.0366124 0.17333317 0.0044768224 0.22662099 0.12442675
0.16294622 0.059983484 0.12120382 -0.0069233603 -0.00090300135 0.083207406 0.10045798 0.20171566
0.01777941 -0.017233975 0.12317029 0.15076806 0.20182788 0.14617233 0.14684635 -0.030721711
0.17119715 0.15369666 0.043011416 0.20164968 0.0031666358 0.024147522 0.23975065 -0.022887561
0.07103278 0.05192648 0.1320265 0.08484488 0.06941586 0.08656805 0.06011292 0.15117747
0.2135656 0.045920316 0.20304754 0.07648959 0.021627534 0.05251048 0.059574734 0.15668063
0.14307396 0.1550554 0.06228571 0.17144412 0.13685781 0.044973023 -0.011151049 0.10885841
0.012520313 -0.014583288 -0.0036460846 -0.04502949 0.09629749 -0.06426047 0.08904945 0.091137595
0.008822257 -0.13070187 0.058131408 0.003280791 -0.14821367 0.008046177 -0.1452094 -0.09814989
-0.08747585 0.0729182 0.07627224 0.04382682 0.1529359 0.04539882 -0.059248615 0.020545345
-0.08166834 0.14366846 0.053823244 -0.021150086 0.11001403 0.013614454 0.07103507 -0.051855866
-0.12170271 -0.052938122 0.062394038 0.021149606 0.054839987 -0.08578003 0.12692374 0.03959922
0.045955446 0.099175476 0.0257786 -0.06494511 -0.082812086 0.026548684 0.13746817 0.113336325
0.03241747 0.011106231 0.099542245 0.030872896 0.04795559 -0.082528 0.060024556 0.089591704
0.03002095 -0.048159435 0.033068836 0.06733092 -0.018572807 0.07090087 0.05376102 0.04464467
0.22386381 0.20816527 0.16767871 0.32526472 0.07236005 0.053503867 0.03895496 0.3243028
0.23107463 0.17839944 0.22331436 0.19219176 0.11053392 0.20661186 0.109386824 0.07246173
0.30054474 0.060031842 0.34799176 0.14152174 0.31207806 0.23427303 0.27158186 0.20151429
0.23503977 0.18027179 0.17576212 0.24322678 0.31261197 0.16704156 0.18231563 0.10029596
0.24243262 0.28037035 0.23493505 0.20574462 0.18593979 0.08953994 0.20370796 0.27781418
0.22028045 0.053511493 0.32347777 0.32689908 0.29159024 0.077772684 0.28631172 0.26572332
0.071034275 0.18755119 0.21323861 0.15120947 0.15196367 0.2837979 0.2615972 0.0503209
0.10417913 0.06331522 0.11078768 0.062074836 0.21160088 0.1795934 0.12570848 0.16333851

lstm.bias_hh_l0 f4 [256]
00000000: 60d0 0b3d 30f2 093e 6559 a13e e058 803e
00000010: 7e33 c43b dde8 84bc f098 4c3e b29f 4b3e
00000020: 287c 6c3e 985b e43d 9687 fd3d 16a0 243d
00000030: da35 7b3e 6170 0a3d 6aa2 fe3d 3d76 7e3e
00000040: dac2 88bd 1c58 8d3d e9f0 943e 2ec4 283e
00000050: 89d7 093d 7cff 013d fcd1 c13d 1ddb 503e
00000060: fb59 3f3e f08e 1a3e 7048 f83c 2545 093e
00000070: 711f 0f3e 40bd 063e 299f 4b3e d882 383e
00000080: 103c 853d 713e 073e 2181 393d fc3e b93b
00000090: cba2 c5bd b839 dd3d fd75 c43d 9a13 153e
000000a0: 6b5d 293d ab69 5c3d e565 4d3e df92 113d
000000b0: 0e91 aa3d 6c42 e03d bf92 303e 8b60 1f3c
000000c0: a4db 053e c52b 6b3e 4069 113e ae67 f83d
000000d0: 3b0e 5a3c cf12 d03d 1bae 123e a5cb cc3c
000000e0: e091 f33d 53b9 6d3e dea9 563d 74d6 ac3d
000000f0: e53f 303d d234 ad3d 026b 893d ce85 5b3e
00000100: f18a 4c3c 1a82 c23d dab9 873d 8139 173d
00000110: 7c43 0d3e 25c2 163d a5b3 0ebd 3076 cc3d
00000120: 7c4d 033e 756b d53c 2b63 5f3e b0b2 a03d
00000130: d25b 05bd fb68 0b3b 611f 893d f241 163e
00000140: 53ee 013e e85e 9f3d 0465 d73d 351c 483e
00000150: 10f1 1d3e 134a 633e 82f0 c93d 859f 823e
00000160: 5d9e 5c3e de49 52bc f864 2c3e 99d0 0f3e
00000170: d23e 393e ed65 8e3d b7ff 473d 4f3c 3c3d
00000180: 95ac 603e 4ff4 503d 04d7 c4bd 2fc4 3b3e
00000190: a348 453e 017b 2e3e a8c2 c73d 51f3 d8bb
000001a0: cf36 9a3d 3dc6 e33d c774 a93d 1715 a83d
000001b0: 75c8 1cbd 229e ec3d 7999 173e b682 e93d
000001c0: 3e6e 863e e1cf 3f3e 842c fdbb 3746 57bd
000001d0: a75c ca3d bf20 e7bc b569 513e fcb7 8a3c
000001e0: 6dcc ce3d 0664 643e 6506 94bc 56af 133e
000001f0: d280 123c 90ef 4cbd cf53 3d3d 86a0 2b3d
00000200: a2f9 0a3e 983f f5bb 252c 09be 9a16 0fbd
00000210: 1265 cb3d 11ab eab9 375a 753d 60d0 1e3e
00000220: a1b2 9c3d 22a2 323d 18ba 353b e10d b53c
00000230: 6282 00be f99a bbbd f57a a13d 4556 2a3d
00000240: e155 013e baa8 573c ebf6 aebd d316 723b
00000250: e462 0d3e 9520 a73d f43f c33d a0bc b4bd
00000260: 3949 c93b 3768 283d 4d2d b4bd b67a 153e
00000270: c996 eb3d eda7 4bbc 04cd b9bc fe26 fb3c
00000280: 9dab c73c d148 9d3d 29dc a7bd fb1d 1bbd
00000290: 580b 633c f92b 28bc a181 37bd ea46 eb3d
000002a0: b1a7 2c3c 6c07 373e 483a d93d 062d 2fbd
000002b0: fe26 2e3d 4a86 89bd d255 cf3d 2569 98bd
000002c0: 808d 2f3d 186f 803d e13b d63d 7842 b93d
000002d0: e83e 67bd 5d9c 04bd 4b68 ea3d ea76 e6bc
000002e0: 3463 93bd 4c28 53bd b235 083e 3fa0 13bd
000002f0: f833 7c3d 2380 c1bd 5d21 083d cba4 2e3d
00000300: 8450 2e3d 1f31 7b3e 1704 893e 6701 843e
00000310: 615b 133e aa53 e83d 506d 153e 1aa8 a43e
00000320: aaa3 d43d 9fb8 bf3d 5500 883e 708f 0e3e
00000330: 84be 8b3d 3097 0a3e 8583 b63d 8dc6 973e
00000340: c48e 4f3e 8fa5 0e3e 85ca 903e 09f6 033e
00000350: 7521 8c3e 2d9d b13e d9ab 063e 628a 2f3e
00000360: 55bf a33e 75e7 323e df04 943e 438e b13d
00000370: a387 393e b912 5b3e 2c36 823e d1c4 583d
00000380: a632 573e 8e9e 3c3e 5b32 773d 84c1 243e
00000390: c92b 763d 8f3c 9d3d 518d 893e 5adb 6b3e
000003a0: 62d6 903e 69ef 853e 4a67 803e ee58 a03e
000003b0: 9754 5c3e c2f0 3f3e 0b39 8a3e d331 093e
000003c0: f218 213e 2e54 ec3d f02d b43d 504d a83d
000003d0: fcff d13d d494 383e 6feb 593e 1a52 4e3e
000003e0: b297 503e b020 953e 5991 2b3e a9e9 773e
000003f0: 9f51 433e c2dd 813e 5956 bd3d 4f8a f93d
0.03413427 0.13471293 0.31513515 0.25067806 0.0059875837 -0.01622432 0.19980216 0.19885138
0.23094237 0.111502826 0.123793766 0.040191732 0.24532261 0.03379858 0.12433322 0.24849792
-0.0667779 0.06901571 0.2909005 0.16481087 0.033652816 0.03173779 0.094638795 0.20396085
0.18686669 0.15093589 0.030307978 0.13405283 0.13976838 0.1315813 0.19884934 0.18018663
0.06505597 0.13207413 0.045289163 0.0056532603 -0.09650191 0.108020246 0.09592817 0.14558259
0.041348856 0.05381171 0.20058401 0.035540458 0.08328448 0.10950169 0.17243479 0.0097276075
0.13072067 0.22965916 0.14200306 0.1212915 0.013309057 0.101598375 0.14324228 0.024999449
0.11893058 0.23215227 0.05240809 0.08439341 0.043029685 0.0845734 0.06709863 0.21437761
0.012484298 0.09497471 0.06627245 0.036920074 0.13795274 0.036806244 -0.03483929 0.0998348
0.12822527 0.026052216 0.21815173 0.07846582 -0.03255827 0.002127229 0.06695438 0.14673594
0.1268857 0.07781774 0.10517314 0.1954201 0.1542399 0.22196226 0.09860326 0.2551233
0.21544786 -0.012834994 0.16835392 0.14044417 0.1809037 0.069530345 0.048827853 0.045955952
0.21940835 0.05101424 -0.096113235 0.18336557 0.1926599 0.1703911 0.097539246 -0.0066208025
0.07529985 0.11121795 0.08274227 0.082071476 -0.03827711 0.11553599 0.14804639 0.11401884
0.26255983 0.18731643 -0.007726254 -0.052557196 0.09880953 -0.028213857 0.2045048 0.016933434
0.10097585 0.22303781 -0.018069455 0.14422354 0.008941846 -0.050033152 0.046222504 0.041901134
0.1357179 -0.0074843876 -0.13395746 -0.034933664 0.09931387 -0.00044759412 0.05990049 0.15509176
0.07651258 0.043611653 0.0027729329 0.022101345 -0.12549737 -0.09160418 0.0788478 0.04158618
0.12630416 0.013162786 -0.085431896 0.0036939874 0.13807255 0.081605114 0.095336825 -0.0882504
0.006142762 0.041115012 -0.08797703 0.14597592 0.11503369 -0.012430173 -0.022680767 0.030658241
0.024373824 0.07679904 -0.08196289 -0.03787039 0.013857685 -0.01026439 -0.044801358 0.11488135
0.010538028 0.17873925 0.106068194 -0.042767547 0.042517655 -0.06715067 0.10123791 -0.0744193
0.042859554 0.062711895 0.1046064 0.09045881 -0.056456476 -0.032375682 0.114456736 -0.028132875
-0.07196656 -0.051552102 0.13301733 -0.036041494 0.061573 -0.09448268 0.033234943 0.042637628
0.042557254 0.24530457 0.26760933 0.2578232 0.14390327 0.11344083 0.1459248 0.321595
0.10382779 0.093613856 0.26562753 0.13921905 0.06823447 0.13534236 0.08911804 0.2964367
0.20269305 0.13930343 0.2827951 0.12886824 0.27369276 0.34690228 0.13151492 0.17142633
0.31981912 0.17471106 0.28909966 0.086697124 0.18118148 0.21393861 0.25431955 0.052922074
0.21015415 0.18419859 0.060350757 0.16089445 0.06010035 0.07677566 0.26865628 0.23032895
0.2828856 0.26159218 0.25078803 0.31317848 0.21516643 0.18744186 0.26996645 0.13397913
0.15732172 0.115394935 0.087978244 0.08217871 0.10253903 0.18025523 0.21281217 0.20148507
0.20370367 0.291265 0.16754664 0.24210228 0.19074105 0.253645 0.09244985 0.121845834

linear.weight f4 [10, 64]
00000000: e44b e93d 5e86 273e 2371 93bd 0742 0dbe
00000010: 1f3b 82be 19f4 373d 5990 743e 3fe8 05bf
00000020: 2fd3 40be 8b46 333e 4ef5 22bf 4adb 24bf
00000030: db32 49be c91a c3bb ce89 9dbe 5ed2 9b3e
00000040: e9ad adbd c270 2c3e 1d35 6ebe 4e1e 02bf
00000050: a3cb 9bbe 6d96 2abf 323b d13d abf6 ad3e
00000060: 82eb fa3e 5f3c 3b3e ea9d 143f fb42 5e3e
00000070: ecc9 493e 10b4 9f3b 159a a4bd c73d 413e
00000080: 888e 2b3c addb 78be a45c a6bc c508 dbbe
00000090: 74a9 973d 2eab bfbd 35cd dfbd 0a96 d43c
000000a0: f2a9 983d 1732 95bc 5daa 00be ccee 69be
000000b0: 1d89 b0be 6875 843d f654 833e 36e3 003f
000000c0: ad69 6cbe a24a dfbe 7434 02bf 0429 9fbe
000000d0: ea15 51be 4b84 053d 2126 5bbe e94c bc3d
000000e0: 03ab 1ebe 0dee 96be 4243 7f3e e739 0d3e
000000f0: 34ad 403e 73ed 33be 224b c9be 9628 85be
00000100: 6c23 0cbd 5911 ecbc 7ae8 923e dfb7 b53c
00000110: 13d0 bb3d 7c27 423d d20f 433e f10e 243e
00000120: bb1b dfbd 9702 97be 76f3 8bbe 7005 00bf
00000130: f988 9dbe a019 aa3e 2770 f63e 0e3b 6ebc
00000140: 4832 a3be eedf a83d 8da4 bbbd 4abb 763e
00000150: 5fa7 423e b6c9 d43a eb27 223f 33bf 60be
00000160: 68b8 64be 9a2f 68be 15fb 113f a926 113e
00000170: 0cf9 543e 8591 e03e 112a 7e3e a1bb 15be
00000180: 1bb6 0c3f 34d6 f5bd 1ce5 90be f543 4b3e
00000190: 0412 b5be 6f61 87bd 510d aa3e 170e 983d
000001a0: 24f2 19bf c618 753e a00d debe 2885 863e
000001b0: ee86 f7be c051 db3c 346f e1be 6ab5 b9be
000001c0: c313 abbe 924c af3e c5b6 983e 635f 243e
000001d0: d741 d23d a92b 6b3c 0ac4 bfbe e756 bb3d
000001e0: 5ccb c33e 5611 55be 3234 d43d a6c0 88be
000001f0: 8340 b6be 312f c0bd 999e 6c3e a805 ba3e
00000200: 9f3c d0bd 8485 a03d 9fcb b9be 70ef 19be
00000210: 4a3e 96bd d2c9 e6be 76eb a03e bf62 583d
00000220: d3fa b0be 8255 acbd 4bbf e33e edf8 553e
00000230: d77b 97be ec18 3dbe 9c7a 33be 7d93 7d3e
00000240: 803f 603e 2e04 123e 0bd4 11be dff8 043e
00000250: d1be c53e 31f9 933b 2de7 933d b65d d03e
00000260: 2cff cebe c97f 88bb fa40 98be 72ce 993d
00000270: 99bc 3e3e baed 2bbe 56af 55be 845b f13e
00000280: 1c6b 07bc 297a cd3d 4a64 5bbd 83e6 933d
00000290: e43e 543e 5085 ddbd 7c15 3d3d ede1 503e
000002a0: 34e8 6cbe b398 44bc 2ecf 073f 7600 2c3d
000002b0: 1656 b1be 9bed 1f3d 17d1 633e 7c89 c83e
000002c0: 44e9 953e 4c80 053f 6a5d 8d3e 9748 8d3d
000002d0: 91fa 183c d0d9 bf3e 00ae c5be 91d5 833e
000002e0: b7d3 003f 08b9 933c b755 debe aec2 3a3e
000002f0: 6cca 263e 032e 0cbf 845d ebbe 2b95 f73d
00000300: 1635 8a3d 53e0 243e a8a7 0bbd bac5 6fbe
00000310: e700 8bbd 8fee d83e 4bfa c13e 6b46 a03e
00000320: bc79 00be 2c5f 5cbe 05ef 963e eba0 fe3d
00000330: 7107 b13e 5646 b73d b557 af3e 259c 453e
00000340: 357c 6bbe b758 d8bd be2e 893d 47f8 6abe
00000350: 061e 08bf a320 093d a94f 1a3e f2be 1bbe
00000360: e357 f73e d8b9 013d 26b3 d23c 94a1 d9bb
00000370: 0514 e93d c9a3 3cbe 7f04 87be 38a2 62be
00000380: df34 d63e 8824 afbe ad0d a9be f61a 8a3e
00000390: 9833 0cbf 4ceb 44be 5aa6 c7bd afcb 8d3c
000003a0: 479f 363e 673f f53d 818d b6be 2260 05be
000003b0: 2dab ccbe 042c 06be 1111 f0be 8ec0 3dbd
000003c0: 5e75 6d3e f13b 0c3f c408 a9bc 615f b93e
000003d0: eb5e 0abe 1d32 573e 96b2 a9be aa9b 8fbd
000003e0: 691f 95bd aecc 1cbe 74fa eebd 1df7 f73d
000003f0: 48f2 333d 7c30 f03d 9b44 553e a3da 883c
0.11391428 0.16359851 -0.071993135 -0.13794719 -0.2543573 0.044910524 0.2388319 -0.52307504
-0.1883056 0.17507379 -0.63655555 -0.6439711 -0.19648306 -0.005954121 -0.307692 0.30433935
-0.08480436 0.16839889 -0.23262449 -0.5082749 -0.304288 -0.6663578 0.10216369 0.33977255
0.49007803 0.18284748 0.5805346 0.21705239 0.19705933 0.00487376 -0.08037201 0.18871222
0.010470994 -0.2430255 -0.020307846 -0.42780128 0.074053675 -0.09358822 -0.10927812 0.02595045
0.074542895 -0.018212361 -0.12564988 -0.22845 -0.3447961 0.06467706 0.25650758 0.50346696
-0.23087187 -0.43611628 -0.5086129 -0.3108598 -0.20418516 0.032596868 -0.21401264 0.09194357
-0.15494923 -0.29478493 0.24928 0.13791619 0.18816072 -0.17571048 -0.39315134 -0.26007527
-0.03421347 -0.028816866 0.2869299 0.022182403 0.091705464 0.047400936 0.19049004 0.16021325
-0.10893961 -0.29494163 -0.27334183 -0.50008297 -0.30768564 0.33222675 0.4813244 -0.014540447
-0.318743 0.08245836 -0.09162245 0.24094883 0.1900916 0.0016234431 0.6334216 -0.21947937
-0.2233597 -0.22674409 0.57023746 0.14174904 0.20798129 0.43861023 0.24820735 -0.14622356
0.5496537 -0.12003747 -0.28299797 0.19850142 -0.35365307 -0.06610381 0.33213285 0.074245624
-0.601351 0.23935232 -0.4336977 0.26273465 -0.4834513 0.02677238 -0.44030154 -0.3627122
-0.33413514 0.34238106 0.29826942 0.16052012 0.10266464 0.014353671 -0.37454253 0.09147435
0.38241088 -0.20807394 0.10361518 -0.2670948 -0.35596094 -0.09384001 0.23107375 0.3633244
-0.101678126 0.07837966 -0.36288163 -0.15032744 -0.073360994 -0.45075852 0.31429642 0.052828547
-0.34566364 -0.08414747 0.44481882 0.20895739 -0.2958667 -0.18466538 -0.1752724 0.24763294
0.21899223 0.14259407 -0.14241044 0.12985562 0.38622144 0.00451579 0.07221828 0.40696496
-0.40429056 -0.004165624 -0.29737073 0.075100794 0.18626632 -0.16789904 -0.20867667 0.47140133
-0.008265283 0.10033066 -0.05356244 0.07221701 0.20727116 -0.10816443 0.046163067 0.20398684
-0.23135453 -0.011999297 0.53050506 0.041992627 -0.3463599 0.039044958 0.2224773 0.39167392
0.2927953 0.5214889 0.27610332 0.06898611 0.009337083 0.37470865 -0.38609314 0.25748876
0.5032305 0.018032566 -0.4342477 0.18238327 0.16288155 -0.5475771 -0.45969784 0.120889984
0.067484066 0.16101198 -0.034095436 -0.2341527 -0.067872815 0.42369506 0.3788627 0.31303725
-0.12546438 -0.2152068 0.29479232 0.124330364 0.3457599 0.089489624 0.34246603 0.19297846
-0.229966 -0.10563796 0.066983685 -0.22946273 -0.5317081 0.03347839 0.1506945 -0.15209559
0.4830924 0.031671375 0.02572019 -0.006641576 0.113807715 -0.18421854 -0.26370618 -0.22132194
0.41837212 -0.3420756 -0.33018246 0.26973695 -0.54766226 -0.19230384 -0.09748526 0.017309038
0.17834197 0.11974984 -0.35654834 -0.13024953 -0.39974347 -0.13102728 -0.4688802 -0.046326213
0.23189303 0.54778963 -0.020634063 0.3620558 -0.13512771 0.2101521 -0.33144063 -0.070121124
-0.07281382 -0.15312454 -0.11668864 0.1210768 0.04393223 0.11727998 0.20826952 0.016705817

linear.bias f4 [10]
00000000: 99ca 9c3d d36b a0bd 117e 3abd 513e b5bd
00000010: 6f2a 96bc 7fc7 773d f91a 8e3d b329 9d3d
00000020: 61f8 0a3e d4bb 9c3d
0.0765583 -0.07833066 -0.045530383 -0.088497765 -0.01833078 0.06049299 0.069387384 0.07673969
0.13571312 0.07653013
